weights/mnist_params.npz (npz, 93958 bytes, 7 tensors)

arr_0 f4 [20, 864]
000000 25 5c 3b 3d cc 00 4c 3d a0 30 ad bb 2b ab 7b bc
       0.045742173 0.049805447 -0.0052853376 -0.015360634
000010 11 13 0e bd 6a 4d 95 3c a3 d4 9d bb 3f f5 44 3c
       -0.034686152 0.01822539 -0.004816608 0.012021362
000020 7e 77 dd 3c d7 5d 19 3d d9 a6 16 3d 76 16 5a 3d
       0.027034517 0.03744301 0.036780212 0.053244077
000030 c4 60 a3 3c 26 d7 40 bd 06 24 f5 bd 15 42 4d bd
       0.019943602 -0.04708018 -0.119697616 -0.05011185
000040 22 c6 48 bd 2e aa a2 3d 49 e7 12 3d f0 96 02 be
       -0.04901708 0.079426154 0.035865102 -0.1275289
000050 b6 21 01 be 3b 6e 5f bd 97 5c 55 bd 17 03 3e bc
       -0.12610516 -0.054548483 -0.052090254 -0.011597416
000060 0d e2 01 bd ae 10 b1 bd 2e 5d 82 3c f6 60 c8 3d
       -0.03170972 -0.086457595 0.015913572 0.09784119
000070 40 c6 60 bc ae 54 ca bc f4 e0 01 be eb 07 b5 bc
       -0.0137191415 -0.024698582 -0.12683469 -0.022098502
000080 8f 32 16 3d 92 6e c0 3b 89 93 f5 bd 78 df fa 3b
       0.03666931 0.005872556 -0.11991031 0.007656034
000090 ec ab 72 bc f0 82 9c 3d eb 2c dd bd 1e 9f 6a 3d
       -0.014811497 0.07642162 -0.10799583 0.057280652
0000a0 08 73 d8 bd bb a3 96 3c e0 e2 dd 3d 5b df 69 3d
       -0.105688155 0.01838862 0.108342886 0.057097774
0000b0 19 29 e6 ba 8d b0 88 bd 57 1c c8 3d c5 1c f8 bd
       -0.0017559855 -0.066742994 0.097710304 -0.12114862
0000c0 d4 96 e4 bd 65 33 0b bd 11 5f 28 bd 12 a4 21 3d
       -0.11161581 -0.03398456 -0.041106287 0.03946311
0000d0 93 4b 41 3d 6e dc 65 39 3a 49 94 3d e3 6e 82 3d
       0.047191214 0.00021921258 0.07240529 0.06368806
0000e0 6a 9d 2a 3d 89 05 3d bd 9b a4 e6 3d 12 43 f4 bb
       0.041654028 -0.046147857 0.11261865 -0.0074542845
0000f0 16 eb 1d bd 6c f6 9f bc 54 db 12 bd 66 33 c0 bb
       -0.038554274 -0.019526683 -0.0358537 -0.005865502
000100 45 6e f3 3d 93 6a 03 3e 30 c7 fe bd cb e1 09 3d
       0.118862666 0.12833624 -0.12440336 0.0336626
000110 35 8c 8c bc 7d d5 af bd 87 2f 95 3c 6d b2 5c bd
       -0.0171567 -0.085856415 0.01821114 -0.053881098
000120 e8 1e 2a 3d 40 3f a6 3d 9b 64 64 3d dc 33 22 bd
       0.04153338 0.08117533 0.055760007 -0.03960024
000130 82 34 e3 3c cf c5 20 bb 64 ef c1 3d 9a a5 1e bd
       0.027734999 -0.0024531966 0.09469488 -0.03873215
000140 e2 1a 83 bc be dc af bc 9d 30 2b 3d 78 c3 9b 3c
       -0.01600403 -0.021467563 0.041794408 0.019014105
000150 a3 4e 18 3d 51 4d 21 3d 64 e3 88 bb 49 4a 0c bd
       0.03718437 0.039380375 -0.0041774977 -0.03425053
000160 b8 fa 26 bd 37 a3 cf bc b2 52 70 bc 9e 9d cf bc
       -0.040766448 -0.025346382 -0.014668154 -0.025343712
000170 03 00 71 3b fa 87 78 3b 41 47 c5 bc a4 f5 90 bd
       0.0036773689 0.0037922845 -0.024081828 -0.07078102
000180 1a c6 f3 bb 54 c3 7a bc 36 09 89 bd 7b 2d 26 bd
       -0.007439387 -0.015305359 -0.0669121 -0.040570717
000190 7a bb 48 bd 72 c4 4a 3c f1 24 88 3d 10 db 3d bd
       -0.049006917 0.012375938 0.06647671 -0.046351492
0001a0 fb 31 82 bd fa 6b 88 3d 59 5f 64 3d be 16 b6 bd
       -0.06357189 0.0666122 0.055754993 -0.088910565
0001b0 ec d2 27 bd 82 cb f1 3c f1 a8 86 bd 16 a9 6b bc
       -0.040972635 0.029515985 -0.06575192 -0.014383575
0001c0 cf a3 95 3d f9 c8 af 3d 6f 65 91 3b 23 4c 39 3b
       0.07306635 0.08583254 0.0044371407 0.002827414
0001d0 71 4b 32 3c f1 95 37 bc 23 ab 82 bd 64 54 57 3d
       0.010882244 -0.011205182 -0.06380298 0.052570716
0001e0 d4 5a f8 bc c5 50 b7 3d 06 64 d1 3c 0f a8 3b bd
       -0.030316748 0.089509524 0.02556039 -0.04581457
0001f0 06 65 8d bc dd d4 31 bd d3 f5 86 bd f5 70 ee 3a
       -0.017260086 -0.043415893 -0.06589856 0.0018191623
000200 ef 8a 01 3d c7 5e 05 bd 26 5f b0 3d 7e 4f e9 3c
       0.031626638 -0.03256109 0.08611898 0.028480288
000210 ef 88 c4 3c f3 30 8f 3c 5f bb 98 3c e2 77 e5 bc
       0.023991076 0.017479395 0.018644033 -0.028011266
000220 cd 96 1f 3d c6 48 b2 3d f9 f3 91 bd 15 03 61 3c
       0.038962174 0.08705287 -0.07126612 0.013733645
000230 37 92 81 bd 6b e5 b8 3c 73 79 66 bd 61 da a0 3d
       -0.063267164 0.022570333 -0.056268167 0.078541525
000240 11 9b 87 bd 51 5f cd bc ba e2 7e bb 53 93 0f 3d
       -0.066213734 -0.025069864 -0.0038892464 0.03505261
000250 bb 9a 03 bd 5b cc a9 3c ee 98 aa 3d 62 3f a0 3d
       -0.032129984 0.020727327 0.0832995 0.07824589
000260 8d 57 04 bc 6c 3d dd 3c b2 64 9d 3d 61 38 1e 3d
       -0.008077514 0.027006827 0.07685222 0.038627986
000270 bd 8e 0a 3d a0 7c 85 3c 34 0e 95 bc 8c 4e eb bd
       0.033827532 0.016294777 -0.01819525 -0.11489591
000280 97 e0 a3 bc 66 31 4c bd 31 74 55 bd ce be cc 3c
       -0.020004554 -0.049851798 -0.052112762 0.024993327
000290 a1 9a a8 bc 68 a8 4a 3b 88 c9 d8 bc 94 d7 90 3d
       -0.020581545 0.0030923132 -0.026463285 0.07072368
0002a0 b9 b3 09 bb 6f 8a 91 3d 35 55 37 3d 64 f4 46 3d
       -0.0021011664 0.07106482 0.044758994 0.048572913
0002b0 84 82 81 3c 9c ff e5 bc 2e 44 f6 bc 7a 5a b6 bb
       0.015809305 -0.028075986 -0.030061807 -0.005564985
0002c0 94 f8 a5 bc c0 74 06 3c 69 60 3e 3d db 0a 91 bd
       -0.020260133 0.008206546 0.046478663 -0.07082149
0002d0 b0 35 af bd 35 08 42 bd 2c 3c c4 bd 20 b8 e2 3b
       -0.08555162 -0.047371108 -0.095817894 0.006918922
0002e0 99 b2 71 bd f9 de 55 3d ca 3f 83 3b 70 be da bc
       -0.059008215 0.052214596 0.004005407 -0.026702136
0002f0 83 c8 11 3c 4c a5 d2 3d cc 98 d2 3b ec 91 cc bb
       0.008897903 0.10285434 0.006426906 -0.006242981
000300 5b 09 83 3d 1a 22 65 3d 81 7d 15 bd 64 64 64 3c
       0.06398269 0.055940725 -0.036496643 0.013939951
000310 02 4b 74 3c 0a fa 8a bc 50 25 32 3d 05 2d 9c 3c
       0.014910461 -0.016964931 0.043492615 0.019064436
000320 d2 3b f6 bd 84 3f 7a 3d d7 38 08 3e b6 67 dc 3d
       -0.120231286 0.06109573 0.13302933 0.10761969
000330 dd 44 fc bc 4a 74 1d bd 53 43 64 3d 1b 24 8e 3d
       -0.030794555 -0.03844098 0.055728268 0.0694048
000340 17 8b 64 3c 1e 7f 56 bd 2d c3 30 bd ee 4e 07 bc
       0.013949177 -0.052367322 -0.043154884 -0.008258564
000350 97 f1 a3 bd a3 93 61 bd e5 5b a7 3a f9 e2 a9 bc
       -0.08005064 -0.055072438 0.0012768476 -0.020738112
000360 3e ae af bd ae b7 b2 bc 4a 6a 86 3c 93 19 23 b9
       -0.08578156 -0.0218161 0.016408104 -0.00015554418
000370 52 9c 18 3d d6 a2 3b 3d eb 37 97 bc 97 51 de 3c
       0.037258454 0.04580959 -0.018459281 0.027138514
000380 62 dd 67 3d c1 82 bb 3c a3 43 74 bd e8 bd 89 bd
       0.05660761 0.022889497 -0.059634816 -0.06725675
000390 4b a6 38 bc 24 2f 63 3d b0 47 cd 3c 72 63 b2 3c
       -0.011270116 0.05546488 0.025058597 0.021775935
0003a0 8c ec 01 bd dd 3a 3a bc d2 0b a5 bd 39 b6 6b 3c
       -0.03171973 -0.011366573 -0.08058895 0.014386707
0003b0 21 f9 1d 3c 1b 98 a2 bc 36 5a ce bd 4f 06 b0 bd
       0.0096419165 -0.01984792 -0.100758 -0.08594953
0003c0 b0 be 19 3c a6 20 59 bd 04 1b d9 bd 30 98 a6 bc
       0.009383842 -0.05300965 -0.10600856 -0.02033624
0003d0 ab 60 d7 bc 46 b7 29 3d 1e c5 92 3c 61 51 97 3c
       -0.026291212 0.04143455 0.017916258 0.018471422
0003e0 06 01 fa bc 03 19 b9 3d 81 e3 c5 bb f2 0a 66 bb
       -0.030518066 0.09037974 -0.0060390835 -0.0035101739
0003f0 35 b9 f9 bc 7b 4a 74 3d 6f 70 52 3c bf 6d 39 3d
       -0.030483821 0.059641343 0.012844189 0.045270678

arr_1 f4 [5324]
000000 00 00 00 80 00 00 00 80 00 00 00 80 00 00 00 80
       -0.0 -0.0 -0.0 -0.0
000010 00 00 00 80 00 00 00 80 00 00 00 80 00 00 00 80
       -0.0 -0.0 -0.0 -0.0
000020 00 00 00 80 00 00 00 80 00 00 00 80 00 00 00 80
       -0.0 -0.0 -0.0 -0.0
000030 00 00 00 80 00 00 00 80 00 00 00 80 00 00 00 80
       -0.0 -0.0 -0.0 -0.0
000040 00 00 00 80 00 00 00 80 00 00 00 80 00 00 00 80
       -0.0 -0.0 -0.0 -0.0
000050 00 00 00 80 00 00 00 80 00 00 00 80 00 00 00 80
       -0.0 -0.0 -0.0 -0.0
000060 00 00 00 80 00 00 00 80 00 00 00 80 00 00 00 80
       -0.0 -0.0 -0.0 -0.0
000070 00 00 00 80 00 00 00 80 00 00 00 80 00 00 00 80
       -0.0 -0.0 -0.0 -0.0
000080 00 00 00 80 00 00 00 80 00 00 00 80 00 00 00 80
       -0.0 -0.0 -0.0 -0.0
000090 00 00 00 80 00 00 00 80 00 00 00 80 00 00 00 80
       -0.0 -0.0 -0.0 -0.0
0000a0 00 00 00 80 00 00 00 80 00 00 00 80 00 00 00 80
       -0.0 -0.0 -0.0 -0.0
0000b0 00 00 00 80 00 00 00 80 00 00 00 80 00 00 00 80
       -0.0 -0.0 -0.0 -0.0
0000c0 00 00 00 80 00 00 00 80 00 00 00 80 00 00 00 80
       -0.0 -0.0 -0.0 -0.0
0000d0 00 00 00 80 00 00 00 80 00 00 00 80 00 00 00 80
       -0.0 -0.0 -0.0 -0.0
0000e0 00 00 00 80 00 00 00 80 00 00 00 80 00 00 00 80
       -0.0 -0.0 -0.0 -0.0
0000f0 00 00 00 80 00 00 00 80 00 00 00 80 00 00 00 80
       -0.0 -0.0 -0.0 -0.0
000100 00 00 00 80 00 00 00 80 00 00 00 80 00 00 00 80
       -0.0 -0.0 -0.0 -0.0
000110 00 00 00 80 00 00 00 80 00 00 00 80 00 00 00 80
       -0.0 -0.0 -0.0 -0.0
000120 00 00 00 80 00 00 00 80 00 00 00 80 00 00 00 80
       -0.0 -0.0 -0.0 -0.0
000130 00 00 00 80 00 00 00 80 00 00 00 80 00 00 00 80
       -0.0 -0.0 -0.0 -0.0
000140 00 00 00 80 00 00 00 80 00 00 00 80 00 00 00 80
       -0.0 -0.0 -0.0 -0.0
000150 00 00 00 80 00 00 00 80 00 00 00 80 00 00 00 80
       -0.0 -0.0 -0.0 -0.0
000160 00 00 00 80 00 00 00 80 00 00 00 80 00 00 00 80
       -0.0 -0.0 -0.0 -0.0
000170 00 00 00 80 00 00 00 80 00 00 00 80 00 00 00 80
       -0.0 -0.0 -0.0 -0.0
000180 00 00 00 80 00 00 00 80 00 00 00 80 00 00 00 80
       -0.0 -0.0 -0.0 -0.0
000190 00 00 00 80 00 00 00 80 00 00 00 80 00 00 00 80
       -0.0 -0.0 -0.0 -0.0
0001a0 00 00 00 80 00 00 00 80 00 00 00 80 00 00 00 80
       -0.0 -0.0 -0.0 -0.0
0001b0 00 00 00 80 00 00 00 80 00 00 00 80 00 00 00 80
       -0.0 -0.0 -0.0 -0.0
0001c0 00 00 00 80 00 00 00 80 00 00 00 80 00 00 00 80
       -0.0 -0.0 -0.0 -0.0
0001d0 00 00 00 80 00 00 00 80 00 00 00 80 00 00 00 80
       -0.0 -0.0 -0.0 -0.0
0001e0 00 00 00 80 00 00 00 80 00 00 00 80 00 00 00 80
       -0.0 -0.0 -0.0 -0.0
0001f0 00 00 00 80 00 00 00 80 00 00 00 80 00 00 00 80
       -0.0 -0.0 -0.0 -0.0
000200 00 00 00 80 00 00 00 80 00 00 00 80 00 00 00 80
       -0.0 -0.0 -0.0 -0.0
000210 00 00 00 80 00 00 00 80 00 00 00 80 00 00 00 80
       -0.0 -0.0 -0.0 -0.0
000220 00 00 00 80 00 00 00 80 00 00 00 80 00 00 00 80
       -0.0 -0.0 -0.0 -0.0
000230 00 00 00 80 00 00 00 80 00 00 00 80 00 00 00 80
       -0.0 -0.0 -0.0 -0.0
000240 00 00 00 80 00 00 00 80 00 00 00 80 00 00 00 80
       -0.0 -0.0 -0.0 -0.0
000250 00 00 00 80 00 00 00 80 00 00 00 80 00 00 00 80
       -0.0 -0.0 -0.0 -0.0
000260 00 00 00 80 00 00 00 80 00 00 00 80 00 00 00 80
       -0.0 -0.0 -0.0 -0.0
000270 00 00 00 80 00 00 00 80 00 00 00 80 00 00 00 80
       -0.0 -0.0 -0.0 -0.0
000280 00 00 00 80 00 00 00 80 00 00 00 80 00 00 00 80
       -0.0 -0.0 -0.0 -0.0
000290 00 00 00 80 00 00 00 80 00 00 00 80 00 00 00 80
       -0.0 -0.0 -0.0 -0.0
0002a0 00 00 00 80 00 00 00 80 c3 fe 03 b9 ee 48 6f ab
       -0.0 -0.0 -0.0001258804 -8.5011067e-13
0002b0 40 46 18 bb 2b ab 61 bb 37 1e bb bb f4 fd 1e 3c
       -0.0023235232 -0.00344343 -0.005710389 0.009704102
0002c0 f4 99 f9 3c 71 39 57 3c a8 81 b4 bb 6f 46 a0 a9
       0.030468918 0.013136254 -0.0055086203 -7.1176456e-14
0002d0 40 3e ad ba 00 00 00 80 00 00 00 80 b1 bf 4c bb
       -0.0013217404 -0.0 -0.0 -0.0031242187
0002e0 e6 47 15 3c f1 81 06 3d bb ac 40 ba 14 c2 bb bc
       0.00911138 0.032838766 -0.00073499576 -0.022919692
0002f0 30 aa 6d 3c b2 76 99 bc 8a 8e ea bc 97 fd b7 3c
       0.014505908 -0.018733356 -0.028632421 0.022459788
000300 17 ba 60 3c 25 da ac bb a0 58 2d b7 f0 42 6e 3c
       0.013716242 -0.0052750283 -1.0332238e-05 0.014542326
000310 83 8d f0 3b 10 59 4e 3c 2b cc 0e bd bb 93 91 3d
       0.0073410883 0.012594476 -0.03486268 0.071082555
000320 bc 42 68 bd c4 5c f4 3c 03 eb 11 3d 58 f8 51 bd
       -0.056704268 0.02982939 0.035624515 -0.05126223
000330 a8 89 18 bd 51 43 98 bc 45 16 a9 3b 54 ee 38 bb
       -0.037240654 -0.018586786 0.0051601254 -0.0028218227
000340 8c 4b 0d 3d c5 be 81 bd a6 da 63 bc 51 41 ec 3c
       0.034495875 -0.063352145 -0.01390711 0.028839739
000350 d0 b1 a1 bd fd fc ee 3d 38 36 ff ba 52 c6 ac bd
       -0.07895243 0.116693474 -0.0019471115 -0.08436264
000360 68 89 94 bd 41 ac af 3a 8c 2a a1 3c 1c e2 e3 b9
       -0.07252771 0.0013402776 0.019673608 -0.0004346528
000370 b0 7f 49 b9 47 f5 6a 3d 81 32 f2 3b 76 40 a7 3d
       -0.00019216421 0.05736282 0.0073912744 0.08166592
000380 ea ad 74 3d 72 5e f9 3d d6 1e f5 bc 70 dd 23 bd
       0.05973617 0.12176217 -0.02992193 -0.0400061
000390 7b 6f 88 3d cb b6 9c 39 ec b7 02 3e 10 c2 db 3b
       0.06661888 0.0002989083 0.12765473 0.0067064837
0003a0 4f e9 84 bb 77 d7 3b 39 fb fe b3 bc c2 45 d1 3d
       -0.004056133 0.00017913977 -0.02197217 0.10218383
0003b0 99 4c 7e bd 16 e0 1f 3d bb 97 b5 3d 23 9a 9d 3d
       -0.062084768 0.039032064 0.08866831 0.07695415
0003c0 71 05 0d 3d d6 3c ee 3c 14 84 bc bd 61 37 97 3d
       0.034429017 0.029081743 -0.092048794 0.073836096
0003d0 f0 e0 fa bb 88 06 63 3c 75 5b 04 3b ec 6c 04 3c
       -0.007656209 0.013856538 0.0020196114 0.00808261
0003e0 37 9d de bc 46 10 c9 3b 42 85 12 bd b7 79 e3 3c
       -0.027174575 0.006135973 -0.035771616 0.027768
0003f0 b6 b6 e6 bd 21 02 4a bd 8a 4f 6e 3e a0 4a f1 bc
       -0.11265318 -0.049318437 0.23272529 -0.02945453

arr_2 f4 [3, 3, 6, 24]
000000 25 24 2d 3f b8 81 7b 3f 2b 02 ef 3e 27 8b e2 bc
       0.6763328 0.9824481 0.46681342 -0.027654244
000010 d8 93 aa be f7 b3 e1 be 24 1a 33 3f 76 ec 08 3f
       -0.3331592 -0.44082615 0.6996176 0.5348581
000020 9c 62 1e bf 06 a1 30 3f b4 a7 9e 3d 7b c6 2f 3f
       -0.61869216 0.689957 0.077468306 0.6866223
000030 5f 4f 55 bf c5 1a 65 bf e4 a2 a4 be fa f1 f7 3d
       -0.83324236 -0.8949397 -0.32155526 0.121067
000040 6d 61 d6 3e ed e5 83 be 88 34 4f 3f 08 26 11 3e
       0.41871205 -0.25761357 0.8093953 0.14174664
000050 65 1a 4c 3f f0 93 83 be f8 0a 7f 3e 3d 53 88 be
       0.79727775 -0.25698805 0.24906528 -0.26626006
000060 87 64 3b bf 20 7a b7 bd 81 3b bc be 5b a7 db 3d
       -0.7320027 -0.0895884 -0.36764148 0.1072528
000070 56 27 62 bf 12 63 19 bf 4b 24 e2 3d 87 de 32 3d
       -0.8834127 -0.59916794 0.110420786 0.04366925
000080 f4 8c 47 3f 26 97 7b 3e 6a 95 c3 3d 3b c8 72 3f
       0.7794945 0.24569377 0.09549983 0.9483678
000090 5f f7 fb 3d e5 1e 40 bf b0 a3 21 3f 65 3e dd bd
       0.12303042 -0.7504714 0.6314039 -0.108029164
0000a0 ee 68 47 bf fb 3a 25 bf 99 56 9c be bf 1d 98 bd
       -0.77894485 -0.6454312 -0.3053482 -0.074275486
0000b0 90 b8 15 bf db 7b fe be 36 18 58 3f d7 b5 46 bf
       -0.58484745 -0.4970387 0.8441194 -0.77621216
0000c0 13 0f b4 3e cd bb e6 be 9d fc 04 3f 1a 4c 90 be
       0.3516775 -0.45065156 0.5194796 -0.2818306
0000d0 51 8b 86 3d 82 55 b6 be 5b 2f 61 bf 63 12 c2 3e
       0.06569541 -0.35612112 -0.87962884 0.37904653
0000e0 9a 0d 3e bf 64 95 8f bd 7e a7 76 3e 2b 86 21 3f
       -0.74239504 -0.07010916 0.2408733 0.6309535
0000f0 e4 9e 03 3f 85 73 71 3f 18 4a 32 3f ad ee 00 3e
       0.5141432 0.94316894 0.6964431 0.12591048
000100 b3 08 50 3e cc 84 46 3e c3 42 31 bf c1 16 83 3e
       0.20315818 0.19386595 -0.69242495 0.25603297
000110 bb ee cf 3e 3e e0 44 bf 8a ab ac bd 8a 42 ef 3e
       0.40611824 -0.76904666 -0.08431156 0.46730453
000120 a8 43 65 bf fd 0c d3 3d 1b ec 48 be 1f 8c 45 3f
       -0.8955636 0.10305212 -0.19621317 0.7716693
000130 8d e6 92 3e 30 32 9e be 00 26 31 3e 8b 81 53 3f
       0.2869152 -0.30897665 0.17299652 0.8261954
000140 8a 17 d5 be 7b d4 53 3f 37 e8 62 bf 66 b3 84 bf
       -0.4161952 0.82746094 -0.8863558 -1.0367248
000150 7a 53 b0 be 37 ae 4c 3e ea 37 02 3d 31 c5 81 3e
       -0.34438688 0.19988333 0.031791605 0.25345758
000160 53 9a 0a bf 20 0c 2a bf 99 12 69 3f 4a e5 d0 3e
       -0.5414173 -0.6642475 0.91044 0.40799934
000170 a3 33 be be 9f 40 15 3f 7b 80 86 bf e6 56 8d be
       -0.3714877 0.5830173 -1.0507959 -0.2760536
000180 a6 d1 09 3f 2c 73 ae 3e ff a7 42 3f 7b 0b 1c bf
       0.53835523 0.34072244 0.7603759 -0.6095502
000190 ab f6 02 3e 17 93 a9 be a0 22 d1 3d 40 0a 35 bf
       0.12789409 -0.33120033 0.10211682 -0.70718765
0001a0 9c d0 29 3d 8f 9f 77 bc 54 88 1e 3f 66 b2 3b 3f
       0.04145871 -0.015113725 0.6192677 0.7331909
0001b0 7f d3 01 be 81 ba 40 3f 0f ce 42 3e f5 3d 9a be
       -0.12678336 0.7528458 0.19023918 -0.30125394
0001c0 69 f3 26 bf 8a 09 03 3d 54 92 89 3e 71 29 f3 be
       -0.65215164 0.03199152 0.26869452 -0.47492555
0001d0 ad d4 53 3e 20 34 b4 be bc a8 c3 3c 39 26 8b 3e
       0.20686598 -0.35196018 0.02388417 0.271776
0001e0 92 c8 02 bd 57 d0 3d bf d7 88 5d 3e f5 74 22 bf
       -0.03192956 -0.74146026 0.21634232 -0.6345971
0001f0 5e d0 44 3d a4 29 8d be 23 57 48 3f c3 7f 32 bd
       0.048050277 -0.27570832 0.7825796 -0.043578874
000200 1c e7 0d 3f be ec c0 3e fe f1 8f be fe b7 32 bd
       0.5543077 0.3768062 -0.28114313 -0.0436325
000210 c4 89 9d 3e 08 66 60 3f 8b 43 18 bf 62 50 11 3f
       0.3076917 0.8765569 -0.5947806 0.5676328
000220 ac 1d 82 bf 5b 5b ca 3e 24 e8 cf bd d7 0d 32 3f
       -1.0165305 0.39522824 -0.10151699 0.6955237
000230 56 f7 28 3f 8f d0 08 bf c0 e0 e0 3e 3b 21 b6 3c
       0.66002405 -0.53443235 0.4392147 0.022232642
000240 f0 07 1b bf fc 26 c3 be 72 7b 03 be 85 ce 76 bf
       -0.60558987 -0.3811568 -0.1284006 -0.96408874
000250 f5 17 b8 3e 2a 7c 2a 3f ec 37 61 be 16 99 20 3f
       0.35955778 0.6659571 -0.21993989 0.6273359
000260 50 19 20 3d 50 63 bb be b6 b2 79 3f 2e c5 c2 be
       0.03908664 -0.36599207 0.97538316 -0.3804106
000270 14 64 40 bf 16 d5 1e 3f 73 1c 94 be b1 d0 18 bf
       -0.7515271 0.62043893 -0.28927955 -0.5969344
000280 cd 66 73 3f 1f 38 38 bf e7 94 49 bd 87 e6 79 3f
       0.95078737 -0.71960634 -0.04921427 0.9761738
000290 d5 f5 bb 3e cc 6f 4a be 54 de aa be ac 1b fb 3d
       0.36710992 -0.1976921 -0.33372748 0.12261137
0002a0 a0 9c 0f 3f 6a 85 d4 be 19 f0 2b 3f 45 dd f6 3e
       0.56098366 -0.41508037 0.67163235 0.4821569
0002b0 0d 65 78 bf 4d 07 3b 3f 9e 1e 46 bf 9b 60 1c bf
       -0.9702919 0.73058015 -0.7739047 -0.6108491
0002c0 a5 e4 2f bf 57 34 d5 bd 04 02 43 3f e1 48 49 bf
       -0.6870826 -0.10410374 0.7617495 -0.7862683
0002d0 91 93 49 bf ac 93 c0 3e b1 cb 23 bf 2f eb 81 be
       -0.78740793 0.37612665 -0.63982683 -0.25374743
0002e0 f8 d2 ce be 69 5d 00 3f a5 91 5c 3e dd 41 82 bc
       -0.4039533 0.5014253 0.21539934 -0.015900547
0002f0 d1 49 61 3f 5f be 85 bf 9a c7 f8 be 4a ad 0d bf
       0.8800326 -1.0448722 -0.48589784 -0.55342543
000300 08 02 0b bf df 8a 22 3f b3 f9 04 bf cd 25 26 3f
       -0.54299974 0.6349315 -0.5194351 0.6490143
000310 10 44 08 3f 60 6d 7a bd 45 44 58 be ff 18 ac bd
       0.53228855 -0.061139464 -0.21119793 -0.08403205
000320 b0 d1 92 be f3 8e 07 be e9 95 9b 3e 50 ae d4 3e
       -0.28675604 -0.13238125 0.3038781 0.4153924
000330 84 ca 16 bf 54 79 8f be 47 71 24 bf 44 ac 30 3e
       -0.58902764 -0.28022254 -0.6423535 0.17253214
000340 23 55 ad be 01 b4 32 bf 5a bb 15 3f 95 0e 79 bf
       -0.33854017 -0.69805914 0.58489 -0.97287875
000350 e8 f5 bc be 1d 41 45 bf a1 d6 46 3f b9 e1 34 bd
       -0.36906362 -0.7705248 0.7767125 -0.04416058
000360 45 6d 9a be 5c 25 64 bf 4a 32 28 3f a4 dc 0c 3e
       -0.3016149 -0.89119506 0.65701735 0.13756043
000370 01 5b 22 3f 3f 0b 48 bf 17 7d 38 3f 9c 50 43 bf
       0.6342011 -0.7814216 0.7206587 -0.76294875
000380 d2 ef af be d2 8a 90 3c 24 aa 3f bb 48 81 f3 be
       -0.34362656 0.01764432 -0.0029245699 -0.4755957
000390 5a 6f 39 3f 6c 02 99 be ad e0 16 bf 47 ac f2 3e
       0.72435534 -0.2988466 -0.5893658 0.47397062
0003a0 a6 26 4b bf bd 65 21 bf 51 e9 6f 3e c7 02 20 3f
       -0.7935585 -0.63045865 0.23428847 0.6250424
0003b0 af 40 3a 3f 46 c2 4c bf ec ac 0e bf 20 cd 6f bf
       0.7275495 -0.7998394 -0.5573261 -0.9367237
0003c0 f5 7e 30 bf e6 29 bf 3e 50 fc 06 3e 1c ff 89 bf
       -0.6894372 0.37336653 0.13182187 -1.0780978
0003d0 a9 85 57 3d 83 6b 19 bf 22 aa 57 bf d4 69 cf 3e
       0.052617703 -0.59929675 -0.8424398 0.40510428
0003e0 65 f6 9a be 9f c8 12 bf 39 e0 ee be 6e fa f7 bd
       -0.3026611 -0.57337373 -0.46655443 -0.121083125
0003f0 b6 e9 4d bf f4 46 27 3f 1f 66 db 3d 7d 26 3b bf
       -0.8043474 0.6534264 0.107128374 -0.73105603

arr_3 f4 [3, 3, 6, 24]
000000 f0 d9 dd be bd bc 65 3f 44 1c 22 3f 5e 3f 3a 3e
       -0.43330336 0.89741117 0.6332438 0.18188235
000010 38 5c f8 be 13 9f 48 bf 68 8c d6 3e 96 23 25 3e
       -0.48507857 -0.7836773 0.41903996 0.16126856
000020 07 0d 42 bf 61 fb 20 bf fc 77 8c be 2f e2 69 bf
       -0.7580113 -0.62883574 -0.2743529 -0.91360754
000030 07 e6 eb be a0 5b 57 3f ba 87 48 3e 12 46 c9 be
       -0.46073934 0.84124184 0.19583026 -0.39311272
000040 8d 01 e0 3e 60 de 81 3f 28 38 00 3f 1a 46 1e bf
       0.43751183 1.0145988 0.5008569 -0.61825716
000050 07 ef 32 3e 33 02 8c bc e9 61 24 bf 09 5f 93 bd
       0.17473994 -0.017090892 -0.642119 -0.07195861
000060 71 99 fb 3e ec b8 20 3f 0e 06 1e bf 44 19 0d be
       0.49140504 0.6278217 -0.6172799 -0.1377917
000070 1c d2 ba 3e 24 e5 33 3f 0c 46 3d 3f 6e 1f 6a 3f
       0.36488426 0.70271516 0.7393501 0.9145421
000080 5d 2f c2 3e 47 c1 6f bf 05 ae 78 bf 18 5a 83 bf
       0.3792676 -0.9365429 -0.9714053 -1.026187
000090 ce dd f1 3e cf d1 1c bf 8b 63 80 bf be 8f 0e bf
       0.47239536 -0.6125764 -1.0030378 -0.55688083
0000a0 4e da 5e bf ca 6a cc 3d b8 ee 8e be 37 38 67 3f
       -0.87051857 0.09981306 -0.27916503 0.9032015
0000b0 7e db 6a bf d0 0b ce 3d 0e b5 71 bf 1a c5 2d 3f
       -0.9174117 0.10060847 -0.9441689 0.6787888
0000c0 d3 8b 67 be d9 2a 85 be 4c 96 6d bd 7c 35 d2 bd
       -0.22611932 -0.26009253 -0.058004662 -0.102641076
0000d0 de b9 31 3f 8e 32 1b 3b ff d1 5e bf 5d 39 fc be
       0.69424236 0.0023681256 -0.8703918 -0.49262515
0000e0 88 7d 37 bf ff 89 b3 be e2 4e 63 3e d1 87 e3 3e
       -0.7167592 -0.3506622 0.2219806 0.44439557
0000f0 ee 0c 9e be 23 a5 a0 be 40 d1 0f bf 7a 0a fe 3e
       -0.3086924 -0.3137599 -0.56178665 0.49617368
000100 70 56 2f bf e9 56 de 3e e6 37 56 3f 19 00 2b 3f
       -0.6849127 0.43425682 0.83679044 0.66797024
000110 6f 7c f2 3c 89 65 49 3f 22 ac 96 be 8c cc 82 be
       0.02960035 0.78670555 -0.29428202 -0.25546682
000120 99 dd 66 3f 39 59 3a bf a2 ad 55 be 81 ee 7b bf
       0.9018188 -0.7279239 -0.20867017 -0.98410803
000130 34 dd 2a bf 70 cd bc 3e 8f e4 36 3f 02 b1 18 be
       -0.6674378 0.36875486 0.714425 -0.14911273
000140 7f 59 96 bd 37 31 a5 3c 1e 43 4e bf 54 17 29 3f
       -0.07341289 0.020165069 -0.8057116 0.6605122
000150 a5 1b bc 3e df b2 b7 be 40 8d 39 3f 5b ea 1f bf
       0.3673984 -0.35878655 0.72481155 -0.62466973
000160 9d 2b f4 3e 00 0a 66 bf 26 90 4e be 5d 44 26 bf
       0.47689524 -0.8985901 -0.20172176 -0.64948064
000170 43 15 28 bf f0 3c 22 be 43 86 b4 bd 6c 70 d1 3e
       -0.6565744 -0.15843558 -0.08814671 0.40906084
000180 d6 3d 73 3e 11 a5 3d 3e 55 d7 ef be 1d 66 58 be
       0.23754057 0.18519999 -0.46843973 -0.21132703
000190 54 7c 3a 3f 5c ad 9d 3e 01 ec 42 3f bc 75 06 3d
       0.7284596 0.30796325 0.76141363 0.032827124
0001a0 3e b3 bf 3e 5d e3 07 3f 48 4c 1d 3e a2 6a dc 3e
       0.37441438 0.53081304 0.1536113 0.43050104
0001b0 9f 45 75 3f d5 4d 24 bf 1e bb c8 be d5 89 d2 3d
       0.9580936 -0.6418126 -0.3920526 0.102801956
0001c0 63 f3 13 3f 48 89 7b bf da bb 43 bf 77 79 0a 3e
       0.57793254 -0.9825635 -0.76458514 0.13522898
0001d0 0a ab fc 3d 67 89 50 3f 14 93 71 3e 38 d9 4f 3e
       0.123373106 0.8145966 0.23591262 0.20297706
0001e0 a7 1a 12 3f c9 a9 75 3e 34 ed 7b bf 50 c3 39 bf
       0.5707192 0.23990549 -0.9840882 -0.7256365
0001f0 5f 6c e3 3e 91 49 b3 3d d9 8a 3e 3f 2a e9 36 be
       0.44418618 0.08754266 0.74430615 -0.17862383
000200 00 52 3e bf b6 c8 5a 3f 89 fb 6c 3f 93 56 50 bf
       -0.7434387 0.8546251 0.9257131 -0.813821
000210 d4 69 72 3f c2 85 43 3f 3a 86 2e 3e 96 b6 e1 be
       0.9469273 0.76375973 0.17043391 -0.44084615
000220 16 12 06 3e a3 e7 c0 be 0d f9 ed be 83 14 8c 3f
       0.13092837 -0.37676725 -0.46479073 1.094376
000230 0d d4 bb be 9c c2 0c bf 2b 5e 0f be a3 a5 0c 3e
       -0.3668522 -0.5498445 -0.14000766 0.1373506
000240 31 6f 62 bf 14 00 90 3d b1 93 f0 bd b6 d0 4b bf
       -0.88450915 0.07031265 -0.1174692 -0.7961534
000250 84 e5 12 3e 84 0b 2c bf 20 2d e6 3e f9 a7 0d bf
       0.14345366 -0.6720507 0.44956303 -0.5533443
000260 17 39 98 3e 09 2c 13 be 47 d5 e7 3b 31 d9 dd 3e
       0.29731056 -0.14372267 0.007074985 0.43329766
000270 9b 70 19 bf 5f bf 14 bf 96 36 75 3f 1d d1 59 3f
       -0.5993745 -0.5810451 0.95786417 0.85084707
000280 84 f1 ac be 73 35 0d 3f 2a 33 63 bd cd 1d 8b 3e
       -0.33778012 0.5515968 -0.055468716 0.27171174
000290 11 e3 4e 3f f7 13 13 3f c6 c6 56 3f 71 1d 5a bf
       0.80815226 0.5745234 0.83897054 -0.85201174
0002a0 df b1 38 3f bd fd 13 3f 84 8f 43 3f 62 f5 23 3f
       0.7214641 0.5780905 0.7639086 0.640463
0002b0 54 a4 15 bf 02 65 d4 3e 0a 25 f2 be d0 8b 2a bf
       -0.5845387 0.41483313 -0.47293884 -0.66619587
0002c0 54 60 a4 be 50 15 08 3e e1 3c cd 3e 9e 80 08 bf
       -0.32104743 0.1328938 0.4008551 -0.53321254
0002d0 43 85 a9 bd b9 67 28 3e 83 11 60 bf f9 0b d6 be
       -0.08277371 0.16445817 -0.8752672 -0.4180601
0002e0 69 e7 15 3f 65 b3 2d bf cc 96 4b 3f 2b 36 4f be
       0.5855623 -0.6785186 0.7952697 -0.20235507
0002f0 5b 78 73 3e a9 ab 81 bf b3 74 6f 3f a0 8c 41 be
       0.2377638 -1.0130512 0.93537444 -0.189013
000300 a2 b2 13 be 1e 22 ad be 7b 2c 34 3f 6b 27 16 3f
       -0.14423612 -0.33815092 0.7038037 0.586539
000310 d8 f9 38 bb e0 5b 0a 3f 7f 39 15 3f 63 02 08 3e
       -0.002822509 0.5404644 0.5829086 0.1328216
000320 76 22 89 bf 1c 6e 8d bd 82 3d af be 31 f3 ed be
       -1.0713642 -0.06905767 -0.34226614 -0.46474603
000330 ab 30 44 3f ef d8 d3 be fc 07 22 3f d5 f9 0d 3f
       0.7663676 -0.41376445 0.63293433 0.5545934
000340 cd 87 5e 3e c4 8c 8d bf 35 3b 00 3f de e9 bb bc
       0.21731491 -1.1058583 0.5009034 -0.022938665
000350 b6 b1 f9 be dd fd f1 3e d7 47 55 3e de 58 3f 3f
       -0.48768395 0.47263995 0.20828186 0.74744976
000360 8f ca 8e 3f a1 e8 9d be c2 8f f6 3e 44 df 75 3f
       1.1155566 -0.30841544 0.48156554 0.960438
000370 b8 8b 53 bf e9 e7 fc be 66 52 98 be 8d a9 38 3f
       -0.8263507 -0.49395683 -0.29750365 0.72133714
000380 46 90 66 be bd 6e 52 3f 28 8b 18 bf c3 38 48 3f
       -0.22515973 0.82200223 -0.59587336 0.7821161
000390 ec e3 4c bf 07 18 23 bf a7 35 bf be 10 82 3e bf
       -0.8003528 -0.6370854 -0.3734562 -0.7441721
0003a0 64 c0 41 3f 3f 1d 7d bf 56 f1 88 bf 0a 81 b9 bd
       0.7568419 -0.9887275 -1.069865 -0.090578154
0003b0 bd 88 22 3f 5b f0 68 bc 27 3f 85 3e 21 f9 41 bf
       0.63489896 -0.014217461 0.26024744 -0.75770766
0003c0 0d b0 9e bd 14 10 21 be f3 3a 83 3e 46 ff 89 3e
       -0.07748423 -0.1572879 0.25630912 0.2695257
0003d0 e9 00 1e bf be 31 14 3f 0f a3 3e bf 7e 19 8f 3d
       -0.6172014 0.578884 -0.7446756 0.06987284
0003e0 78 f3 0f 3f 80 d3 91 3e f8 92 c0 be fd 05 47 bf
       0.5623088 0.28481674 -0.37612128 -0.7774351
0003f0 d0 0b a6 3e 99 bf 96 bd e4 c9 48 3f 0c 1b a8 3e
       0.32430887 -0.07360763 0.7843306 0.32833135

arr_4 f4 [3, 3, 1, 6]
000000 ec f3 08 bf 2a b8 da be 71 d4 8c 3e 4f 15 b1 be
       -0.53497195 -0.4271863 0.2750583 -0.3458657
000010 e8 3b 19 bf d2 73 03 bf 2d db 77 bf 35 ba 64 bf
       -0.59857035 -0.513486 -0.9681881 -0.8934663
000020 91 e8 2d bf ef 09 c3 be 3d 66 82 3e e0 1f 16 bd
       -0.67932993 -0.38093516 0.25468627 -0.036651492
000030 e8 ca d7 be 64 13 24 3f 17 20 0e 3f 62 3b f2 3e
       -0.42146993 0.6409209 0.55517715 0.4731093
000040 6d 51 05 bf d5 d2 46 bf ed 3e 3d bf 16 f1 02 bf
       -0.5207737 -0.77665454 -0.7392414 -0.5114912
000050 8c 9d 2f bc 0e ca cd 3d eb 2b 72 bf 8c 38 e3 bd
       -0.010718714 0.100483045 -0.94598264 -0.1109477
000060 66 71 c1 be bb 92 6d bf 5f 63 e2 bd af c2 f3 3d
       -0.3778183 -0.9280202 -0.1105411 0.11902367
000070 d6 a7 53 be 08 e3 c8 be 4b 7d 5a bf 0a 0a 04 bf
       -0.20669493 -0.3923571 -0.8534743 -0.5157782
000080 ca e7 e9 be 24 81 f0 3e cf 71 ac be e5 d5 34 bf
       -0.45684654 0.46973526 -0.3368058 -0.7063888
000090 1e 03 74 bc fb d3 49 bf 3c 72 1a bf fe ab 18 be
       -0.014893321 -0.7883908 -0.6033056 -0.1490936
0000a0 5b a5 a7 be d0 8b 21 3f 29 7b 6c bf 26 0d 77 3e
       -0.32743344 0.6310396 -0.9237543 0.2412611
0000b0 a6 13 86 3d 48 b6 ba 3e 59 6b a8 3c 61 41 0f 3f
       0.065467164 0.36467195 0.020559 0.55959135
0000c0 46 6c 2d bf e3 58 bb be 8e e2 60 3e c7 de db be
       -0.6774334 -0.36591253 0.21961424 -0.42943403
0000d0 42 96 0d 3f f7 7b 12 3f
       0.553074 0.57220405

arr_5 f4 [3, 3, 1, 6]
000000 04 1d 4b be f6 c1 59 3e 71 22 1a 3e 79 e5 56 3e
       -0.19835287 0.21265396 0.15052201 0.20985974
000010 c7 48 c3 3e 20 91 3b 3f 84 17 4c bf 3c 3e 5f bf
       0.38141462 0.7326832 -0.7972338 -0.8720434
000020 5f 0f e3 3d 2a d7 ec be cc 94 70 bf cc 7c 22 bb
       0.11086916 -0.46257907 -0.93977046 -0.0024793623
000030 08 82 4b bf 32 24 ca 3e 7d 6f 11 3f e5 b2 d9 be
       -0.79495287 0.3948074 0.5681074 -0.42519298
000040 6e 65 10 3e e3 0b c7 be 75 89 2a 3f 34 b7 9f bd
       0.14101192 -0.38876256 0.6661599 -0.07798615
000050 7c ae c1 bd c6 f3 bd 3e 0b 54 4f 3e 8a 30 e1 be
       -0.094571084 0.37100047 0.20246904 -0.43982345
000060 d0 f3 e2 be a4 29 ab 3e 74 3c d6 be ab 32 c3 be
       -0.4432664 0.33430207 -0.41842997 -0.38124594
000070 cb d7 41 3f fb 17 89 3d 66 f6 df bc 08 b2 c1 bd
       0.757199 0.06694027 -0.027339172 -0.09457785
000080 53 5f 32 3f c8 19 46 bf fc 3c 10 bb 63 af 1a bf
       0.69676703 -0.7738309 -0.0022009006 -0.6042387
000090 a0 7a 08 bf 07 d1 66 bf 2a 5b af 3e fa 3d de be
       -0.5331211 -0.901627 0.3424924 -0.4340666
0000a0 dd fb 6a bf 55 f2 e4 be 0c 85 07 3f 63 c2 b6 bd
       -0.9179056 -0.44716135 0.5293739 -0.08923795
0000b0 0a 52 8b be ba 38 82 3e 16 8b bf 3e 51 39 d4 3d
       -0.27211028 0.25433904 0.37410802 0.10362495
0000c0 4d 17 11 bf df cc 0f 3f 8a a3 2a bf 1b 57 00 bc
       -0.5667618 0.56171983 -0.6665579 -0.007833268
0000d0 a0 30 6e bf 69 44 83 bf
       -0.93042946 -1.0255252

arr_6 f4 [2, 1, 1, 1]
000000 84 20 04 3d 2a 3a 0a 3d
       0.03225757 0.033746876
